GC-MERGE/src/data/E116/saved_runs/model_2024-10-31-at-11-10-43.pt (torch, 275418 bytes, 6 tensors)

lin1.weight f4 [256, 6]
0.26786062 -0.00091453275 0.090632044 -0.17622472 0.2144135 -0.27559024 0.26602462 -0.27628285
0.01460197 0.30259275 -0.07274893 -0.06566205 -0.21551988 -0.14336988 -0.10286998 -0.24845149
-0.34351704 -0.14536007 -0.30581063 0.25498495 0.19540648 0.05141635 0.003204335 -0.032257427
0.26821038 0.012749229 0.17155781 0.113326564 0.11067302 0.15375333 0.4087946 -0.27352044
-0.043898597 -0.13112886 0.36322603 0.0911127 0.1148631 -0.22132164 -0.2631869 0.09813173
0.3557109 -0.24129362 0.20100912 -0.032473333 0.22648285 0.11174249 0.15900631 0.22380686
0.20742154 0.3597479 0.4838427 -0.26526392 0.062638536 -0.52083075 -0.46193832 -0.2737045
-0.033073764 0.13537246 -0.08247525 -0.08906335 -0.16365072 -0.047688674 -0.18253987 -0.016284466
0.38429657 0.3244511 0.116904825 -0.14872272 -0.38449082 -0.18953316 -0.058327194 -0.22341006
-0.099836394 -0.22113046 0.38903934 -0.0313523 0.36350438 -0.23756476 0.03377611 -0.2211097
-0.17501277 -0.27745268 -0.5087186 -0.17391573 -0.27436054 -0.07104967 -0.13484499 -0.37670743
0.06613236 0.17691858 0.103462085 0.31907833 0.043162197 0.39447698 0.050591875 -0.069409035
-0.089002535 -0.12552527 -0.1834502 0.09091871 -0.264459 0.10005801 -0.32670316 -0.049790077
-0.059051555 -0.18275462 0.29160365 -0.33070403 0.25510067 -0.31304953 0.27885118 0.4309649
-0.046277117 -0.0014120932 0.094741486 0.17854494 0.060464524 -0.10132334 0.42018986 0.41240776
-0.23718259 0.09633922 0.34157228 -0.4150224 0.027601078 -0.38123298 -0.059766524 -0.15417622
0.28496853 0.2955175 -0.18574844 -0.14758947 0.36075172 -0.10075893 0.30079398 0.025302233
0.34314245 0.27454355 -0.21959922 -0.08535783 0.25755215 -0.23955037 0.13152891 -0.19964322
-0.56177086 -0.060882766 0.32319152 -0.23829465 -0.36921784 0.36611223 0.43457234 0.046286426
-0.24747632 0.1606217 0.1368448 -0.22038098 -0.29593262 -0.16926695 0.38545877 0.044087376
-0.0059310463 0.18815403 -0.22936948 -0.12910545 0.07062125 0.35594505 -0.028526789 0.091165096
-0.33967346 -0.38193795 0.08548771 -0.0040488015 0.32032886 0.093291946 0.31849512 -0.015167047
-0.2328565 -0.05491147 -0.25532785 0.055331003 -0.44115832 0.1944665 -0.12178879 0.18241747
0.4818818 0.24620588 0.007993955 -0.23300028 -0.16841517 -0.17855918 -0.3867376 0.11991704
0.32992247 0.3131886 0.30030927 -0.243026 -0.21148627 -0.13564889 -0.27007234 -0.26240462
-0.34484544 -0.013166527 -0.29762238 -0.31752774 0.45229858 -0.53448313 -0.084464096 0.2670117
-0.17371787 0.12138884 -0.35591638 0.035285756 0.12348012 -0.14360854 -0.3310157 -0.014044398
0.12408273 0.5343055 0.0017321953 0.5308524 -0.0031041417 -0.14557907 -0.060846746 0.19991495
0.49255636 0.23893033 -0.09868679 -0.011289472 0.17688383 0.38852194 0.2708785 0.14281513
-0.10639914 0.29076508 0.19721875 -0.40279898 0.42535368 -0.019749552 0.4300917 0.28446615
-0.025736272 -0.34879062 -0.39096117 -0.19577548 0.17006548 0.031491876 0.0832638 -0.38577375
0.22299059 -0.10373252 0.24175954 -0.33790457 0.0944273 0.15007786 0.13334149 -0.43920287
00000000: 0725 893e 41bd 6fba 4b9d b93d 4174 34be
00000010: 368f 5b3e 2a1a 8dbe 6134 883e f274 8dbe
00000020: 1a3d 6f3c 70ed 9a3e 64fd 94bd d379 86bd
00000030: 3eb1 5cbe 8ecf 12be 7fad d2bd 116a 7ebe
00000040: 77e1 afbe 45d9 14be 3693 9cbe 638d 823e
00000050: a318 483e f399 523d d2ff 513b 5d20 04bd
00000060: df52 893e 24e2 503c daac 2f3e c217 e83d
00000070: 89a8 e23d 8371 1d3e 874d d13e df0a 8cbe
00000080: 04cf 33bd a546 06be c3f8 b93e 4c99 ba3d
00000090: 583d eb3d 24a2 62be 6fc0 86be 4af9 c83d
000000a0: bd1f b63e ad15 77be 56d5 4d3e c202 05bd
000000b0: 1feb 673e 3fd9 e43d 8dd2 223e a02d 653e
000000c0: 5066 543e e030 b83e 3bba f73e acd0 87be
000000d0: a248 803d 2a55 05bf 2e83 ecbe ff22 8cbe
000000e0: 5b78 07bd 149f 0a3e c9e8 a8bd d866 b6bd
000000f0: 0e94 27be 3355 43bd bbeb 3abe 0067 85bc
00000100: 85c2 c43e 741e a63e cc6b ef3d c54a 18be
00000110: fbdb c4be fb14 42be 7fe8 6ebd 9bc5 64be
00000120: 0677 ccbd 0670 62be 2a30 c73e 456b 00bd
00000130: 3f1d ba3e 2d44 73be d158 0a3d 956a 62be
00000140: 8c36 33be 470e 8ebe 623b 02bf f716 32be
00000150: fc78 8cbe 7d82 91bd ce14 0abe ccdf c0be
00000160: 6770 873d 252a 353e eee3 d33d 3c5e a33e
00000170: d8ca 303d e3f8 c93e 6d39 4f3d 5326 8ebd
00000180: f646 b6bd b289 00be 5fda 3bbe 9733 ba3d
00000190: 2c67 87be 37eb cc3d a345 a7be aef0 4bbd
000001a0: 0be0 71bd 0724 3bbe 134d 953e 0a52 a9be
000001b0: 8e9c 823e 0748 a0be 95c5 8e3e 6ea7 dc3e
000001c0: 138d 3dbd fc15 b9ba d307 c23d 7cd4 363e
000001d0: a6a9 773d 9c82 cfbd 2023 d73e 1c27 d33e
000001e0: fedf 72be 7f4d c53d 90e2 ae3e d17d d4be
000001f0: a81b e23c f830 c3be becd 74bd 5fe0 1dbe
00000200: 65e7 913e 124e 973e d734 3ebe b221 17be
00000210: 73b4 b83e b35a cebd ab01 9a3e a146 cf3c
00000220: 5eb0 af3e f990 8c3e 9ede 60be 16d0 aebd
00000230: e0dd 833e b14c 75be 84af 063e 466f 4cbe
00000240: 37d0 0fbf 3560 79bd 5c79 a53e 8303 74be
00000250: 1f0a bdbe 1073 bb3e 4480 de3e d696 3d3d
00000260: 6f6a 7dbe 047a 243e 0b21 0c3e 8dab 61be
00000270: 7b84 97be 5154 2dbe da5a c53e f794 343d
00000280: 3959 c2bb 73ab 403e d5df 6abe 3834 04be
00000290: e0a1 903d 6e3e b63e 03b1 e9bc c4b4 ba3d
000002a0: aee9 adbe 5f8d c3be 2e14 af3d cfab 84bb
000002b0: 2502 a43e d90f bf3d cb11 a33e 357f 78bc
000002c0: ef71 6ebe d9ea 60bd 55ba 82be c3a2 623d
000002d0: 81df e1be 3a22 473e 676c f9bd a5cb 3a3e
000002e0: 36b9 f63e 651d 7c3e 14f9 023c a097 6ebe
000002f0: 0775 2cbe 38d8 36be 7902 c6be 1197 f53d
00000300: 99eb a83e 425a a03e 23c2 993e cfdb 78be
00000310: db8f 58be 8be7 0abe ec46 8abe e659 86be
00000320: 958f b0be 6bb8 57bc f661 98be ff92 a2be
00000330: ae93 e73e e3d3 08bf 83fb acbd c2b5 883e
00000340: 19e3 31be b69a f83d ac3a b6be cc87 103d
00000350: 25e3 fc3d 1e0e 13be e47a a9be 7a1a 66bc
00000360: 161f fe3d 3fc8 083f d40a e33a f1e5 073f
00000370: db6e 4bbb ae12 15be 703a 79bd 81b6 4c3e
00000380: 5930 fc3e 27aa 743e 4d1c cabd 7af7 38bc
00000390: 0921 353e 59ec c63e 96b0 8a3e 213e 123e
000003a0: cbe7 d9bd 29df 943e b6f3 493e ab3b cebe
000003b0: f5c7 d93e d0c9 a1bc fb34 dc3e 8ca5 913e
000003c0: e0d4 d2bc af94 b2be 102c c8be 5e79 48be
000003d0: a525 2e3e a0fd 003d 3686 aa3d 2384 c5be
000003e0: a557 643e b771 d4bd d08f 773e d401 adbe
000003f0: 1a63 c13d 03ae 193e ac8a 083e 33df e0be

lin1.bias f4 [256]
0.20345995 -0.0298014 0.23639938 -4.4037788e-05 0.10773588 -0.3749794 -0.09479296 -0.17265128
-0.25134 0.15569092 0.40571174 -0.30402285 0.4095475 0.10898355 -0.39219794 -0.052419867
0.2857656 -0.3459911 -0.013825096 0.3743357 -0.14477882 0.26450244 -0.010185142 -0.123601176
-0.21936071 0.29926342 -0.36025277 -0.2689151 -0.3650441 0.029766578 -0.16737857 0.37454095
0.19495791 0.3011158 0.07607894 0.35051003 -0.14470981 -0.07724616 0.36414424 0.17245647
-0.2527487 0.022677233 0.16200903 0.1054582 0.42261237 -0.13833973 -0.39891696 0.22317474
0.018995812 -0.30782852 0.03405864 -0.3670409 0.23908949 0.37729365 0.12778538 0.38094634
-0.21913579 -0.07275929 0.027482817 0.021393955 0.3528395 0.34772846 -0.013685034 -0.32392853
0.061381124 0.24928778 0.07216001 -0.103612624 0.14703536 -0.38198954 0.34763795 0.042198278
0.39305937 0.32973647 0.255665 -0.05384297 -0.20904979 0.041819353 0.36472312 0.033254016
0.32553297 -0.020509925 0.18219166 -0.21438868 0.079279326 0.3740951 -0.3145245 -0.20028764
-0.004897 -0.40181014 -0.35193422 0.051551156 -0.0387598 0.23016517 0.007699313 0.29598004
0.22702241 0.27080026 -2.172156e-05 0.10647064 -0.3564876 0.27844074 0.15383525 0.07707592
0.0025783933 0.36805025 -0.44110557 0.23122321 0.3593761 0.14393926 0.3570939 -0.24993911
0.39755034 0.29686904 -0.1776833 0.37830612 -0.122125715 -0.35513562 0.4009511 0.14344233
0.25433317 0.123293184 0.0957183 0.20666152 0.15888517 -0.27187386 0.29341465 0.056003213
0.17209046 -0.35548452 -0.20319481 -0.046605434 -0.33411422 0.3097052 0.08869017 -0.29871342
-0.2637586 -0.042343326 0.3613108 -0.09795202 0.37669092 0.21328627 -0.29800704 -0.36707082
0.053470742 0.29326674 0.00042645473 -0.3581264 0.1282301 -0.13566425 -0.19340807 0.00012876399
0.2974449 -0.36712402 0.11364149 0.0176253 -0.39935663 0.35603154 -0.02283141 0.3784013
-0.29052037 0.02012209 -0.108190276 0.08703739 -0.39504424 0.117604636 -0.25346214 0.24715228
-0.17544854 0.0531659 -0.38934028 -0.26225093 0.20840855 0.35195604 0.370086 -0.36291745
-0.064117715 0.26566258 0.15386426 0.23286602 0.37106422 -0.08613082 9.652356e-05 0.026201421
-0.37617758 -0.0007106496 0.4136498 -0.033482265 -0.06512318 -0.061206754 -0.02220694 0.035175405
-0.3783213 0.30028972 -0.39398298 -0.1892413 -0.28024277 -0.25113842 0.068733074 -0.22138481
-0.15908547 -0.2865967 0.047748476 0.38816488 0.18772 0.28286144 -0.3238557 -0.11699114
0.19208534 0.015343828 0.34006643 -0.28767136 -0.38243708 -0.31594747 -0.15582806 0.30841252
-0.023879522 -0.20389587 0.035302423 0.23671506 -0.4796426 -0.09394856 -0.20373124 -0.20201488
-0.20988253 0.007865017 -0.34597942 0.33828682 0.12663725 -0.02146359 0.08315919 0.09505623
0.3602995 0.03873447 0.036114085 0.07884622 -0.2498481 -0.40204248 -0.07794189 -0.36938286
0.1579351 -0.22831398 0.07167342 0.2137099 -0.22640902 -0.04889489 -0.325798 -0.032108176
0.3504213 0.17438143 0.26654226 -0.20990098 -0.36369133 -0.19781232 -0.18389902 0.2251532
00000000: ce57 503e 1122 f4bc ae12 723e 37b5 38b8
00000010: a1a4 dc3d 4dfd bfbe d022 c2bd 7fcb 30be
00000020: a3af 80be 716d 1f3e 73b9 cf3e e2a8 9bbe
00000030: 36b0 d13e c432 df3d 2bce c8be 37b6 56bd
00000040: de4f 923e bf25 b1be a882 62bc eea8 bf3e
00000050: e640 14be dd6c 873e 95df 26bc 9d22 fdbd
00000060: 18a0 60be 0e39 993e 0d73 b8be 3daf 89be
00000070: 0fe7 babe 0ad9 f33c 4a65 2bbe d5c3 bf3e
00000080: 0ca3 473e da2b 9a3e 46cf 9b3d 0d76 b33e
00000090: cf2e 14be 3c33 9ebd 1d71 ba3e 6e98 303e
000000a0: 4768 81be 9bc5 b93c b2e5 253e 78fa d73d
000000b0: a660 d83e eea8 0dbe d83e ccbe eb87 643e
000000c0: 1b9d 9b3c b39b 9dbe 1381 0b3d c9ec bbbe
000000d0: e0d3 743e a22c c13e 2cda 023e 660b c33e
000000e0: 2265 60be d302 95bd a523 e13c 6042 af3c
000000f0: 61a7 b43e 7709 b23e 3137 60bc f6d9 a5be
00000100: c66a 7b3d 4c45 7f3e a1c8 933d db32 d4bd
00000110: 7090 163e 2294 c3be 9afd b13e 1ad8 2c3d
00000120: 143f c93e 38d3 a83e 86e6 823e 728a 5cbd
00000130: 2611 56be c54a 2b3d fdbc ba3e 5d35 083d
00000140: 42ac a63e 6e04 a8bc 7390 3a3e b588 5bbe
00000150: 335d a23d 6589 bf3e 5b09 a1be 3418 4dbe
00000160: 0377 a0bb 0fba cdbe b930 b4be 4e27 533d
00000170: 99c2 1ebd 6bb0 6b3e 854a fc3b b28a 973e
00000180: 9078 683e 55a6 8a3e b236 b6b7 470d da3d
00000190: 8b85 b6be c98f 8e3e fd86 1d3e fbd9 9d3d
000001a0: 43fa 283b 1571 bc3e 97d8 e1be c7c5 6c3e
000001b0: 2500 b83e d064 133e 03d5 b63e 0af0 7fbe
000001c0: b88b cb3e 38ff 973e 9cf2 35be 57b1 c13e
000001d0: 0c1d fabd 56d4 b5be 7649 cd3e 8ce2 123e
000001e0: f537 823e 2381 fc3d f507 c43d 149f 533e
000001f0: cbb2 223e 0d33 8bbe 723a 963e a063 653d
00000200: 7b38 303e 1102 b6be 4d12 50be 57e5 3ebd
00000210: 0511 abbe ae91 9e3e 31a3 b53d f7f0 98be
00000220: 5e0b 87be 3270 2dbd bbfd b83e 129b c8bd
00000230: a2dd c03e b767 5a3e 6194 98be b5f0 bbbe
00000240: 2304 5b3d 0f27 963e c995 df39 585c b7be
00000250: c04e 033e 92eb 0abe c40c 46be d204 0739
00000260: b34a 983e aef7 bbbe dfbc e83d ef62 903c
00000270: 7978 ccbe c449 b63e f008 bbbc d1bd c13e
00000280: 16bf 94be 15d7 a43c dd92 ddbd a940 b23d
00000290: 3d43 cabe b3da f03d cac5 81be 7d15 7d3e
000002a0: c8a8 33be 7dc4 593d 9c57 c7be c145 86be
000002b0: 0d69 553e 9533 b43e ea7b bd3e 51d0 b9be
000002c0: 2650 83bd ed04 883e 988e 1d3e 6e74 6e3e
000002d0: 21fc bd3e 5b65 b0bd b16c ca38 5da4 d63c
000002e0: 599a c0be e34a 3aba e8c9 d33e b324 09bd
000002f0: 4d5f 85bd efb3 7abd 54eb b5bc 1614 103d
00000300: 54b3 c1be 93bf 993e 23b8 c9be 79c8 41be
00000310: fb7b 8fbe 3795 80be edc3 8c3d b3b2 62be
00000320: 4de7 22be cdbc 92be e893 433d 8cbd c63e
00000330: ac39 403e 37d3 903e 6ad0 a5be 0d99 efbd
00000340: 05b2 443e ae64 7b3c 301d ae3e a949 93be
00000350: cbce c3be dec3 a1be 6491 1fbe 3fe8 9d3e
00000360: fd9e c3bc 14ca 50be 4699 103d 6f65 723e
00000370: b793 f5be 1a68 c0bd ec9e 50be fddc 4ebe
00000380: 72eb 56be 46dc 003c 3724 b1be ee33 ad3e
00000390: 32ad 013e 69d4 afbc 5e4f aa3d d7ac c23d
000003a0: 2d79 b83e 09a8 1e3d 5dec 133d 217a a13d
000003b0: 2ed8 7fbe 83d8 cdbe ff9f 9fbd c01f bdbe
000003c0: bdb9 213e 24cb 69be 84c9 923d c5d6 5a3e
000003d0: c4d7 67be 0246 48bd ffce a6be dd83 03bd
000003e0: 6c6a b33e 0c91 323e 3a78 883e 48f0 56be
000003f0: c035 babe 508f 4abe 0650 3cbe 8f8e 663e

lin2.weight f4 [256, 256]
-0.10549765 0.009606854 -0.0023165666 0.21932696 -0.046245202 0.033306174 0.03941852 -0.11312957
-0.19682513 0.14035776 0.06584247 0.02591972 -0.08588972 0.060147893 -0.0026379377 0.033057634
0.0139350975 -0.0012391061 -0.021810899 -0.037080027 -0.28354755 0.07416013 -0.09492677 -0.21340664
0.2145521 -0.09106205 0.06076166 -0.053962365 0.043935075 -0.016613116 0.22655202 0.0020427816
-0.014402964 0.059615955 -0.14541587 0.029954666 -0.09338106 0.1052511 0.0539656 -0.059862755
0.017786242 -0.10249115 -0.042936068 -0.077561066 -0.020992132 0.028175298 0.03436099 -0.049438845
-0.1003058 -0.13462773 -0.124137774 -0.035614982 0.03488367 0.03232281 0.07632017 0.009942523
-0.16242439 -0.01963073 -0.032422125 -0.13450707 0.053364284 -0.052428637 0.17776601 0.23736577
0.07117111 0.078624524 0.05480274 0.11460958 0.11796224 -0.013754591 0.04239808 0.027827246
0.07733939 -0.005611556 0.06455572 0.12576817 -0.04334463 0.03699175 -0.031314373 0.19620813
0.05040349 0.035514437 0.011598558 -0.08396306 0.036921777 -0.0077407835 -0.0545955 0.04979398
-0.120676346 -0.16441636 0.017018095 0.1776188 -0.07793091 0.005440717 0.13090205 0.0924575
0.041937254 0.015959544 0.22242458 -0.044040237 0.001185067 -0.03120362 -0.08878677 -0.024337163
0.28517526 -0.00921714 -0.24560763 0.033818085 0.04041636 0.016213471 0.011983135 0.03534159
0.040596657 0.05535604 -0.22047707 0.04198757 0.18654342 -0.050053068 -0.079622366 -0.0006671233
0.013592751 0.043240327 0.06466506 -0.10540073 0.03153796 0.046623006 0.0049170176 0.052859765
0.08819878 -0.025430448 0.14753667 0.17621663 0.016299307 -0.034397036 0.06496077 0.019844338
0.016707782 -0.11860715 0.027554905 0.0073583685 -0.022276536 -0.0476275 0.1562477 -0.040065452
0.009242775 0.07110918 0.14118823 -0.03850177 -0.00912223 -0.049838528 -0.035982594 0.09738574
-0.007158754 0.015178166 0.08065573 -0.05548748 -0.17741407 -0.011580563 0.02111274 -0.01677566
-0.001656808 0.042778935 -0.038378574 -0.021820033 -0.012022364 -0.014423747 -0.19740449 0.08295588
-0.005482763 -0.21187742 0.2362944 -0.024889149 -0.06389473 -0.066290565 -0.051078033 -0.22244713
-0.046619967 -0.002266808 0.025824014 -0.047113296 0.063467726 0.022166295 0.22790788 0.11750656
-0.0268884 0.19738254 -0.051072124 -0.1488103 -0.066531084 0.055293694 -0.039846055 0.12028001
-0.20813106 -0.11269566 0.061800495 -0.047312386 -0.030777056 -0.040669594 0.077676706 0.040907923
-0.021933604 0.009309776 0.221138 0.010062115 0.010254083 0.048987713 -0.016416393 -0.0397509
0.011543977 -0.05821694 0.09580156 -0.026565626 0.0041982853 0.03753478 0.09555389 0.07367863
0.19880208 -0.00024636215 0.07203444 0.059219208 0.042968802 -0.041007318 -0.21583185 0.035337567
-0.18626145 -0.035097606 0.038135275 0.06846167 -0.0008110401 -0.030617438 -0.28958523 -0.046318237
-0.039392658 -0.10530947 -0.09431849 0.14499432 0.04122004 -0.018956393 -0.05904702 -0.024017893
-0.025069378 0.0565271 0.10369185 -0.04195157 0.05787465 0.06321192 -0.15364188 -0.04187825
0.011249872 -0.014977075 0.021131564 -0.17219636 0.042744637 -0.22108695 0.22570373 -0.038068917
00000000: 270f d8bd 1166 1d3c 8ad1 17bb 3f97 603e
00000010: 9c6b 3dbd 0e6c 083d 5075 213d 7ab0 e7bd
00000020: 878c 49be f2b9 0f3e 6bd8 863d 9855 d43c
00000030: f3e6 afbd a35d 763d 40e1 2cbb 7167 073d
00000040: 0950 643c 8069 a2ba c5ac b2bc 3ae1 17bd
00000050: 252d 91be 44e1 973d f768 c2bd 4587 5abe
00000060: 8cb3 5b3e bd7e babd 38e1 783d a407 5dbd
00000070: 44f5 333d 3b18 88bc 41fd 673e 30e0 053b
00000080: 69fa 6bbc dc2f 743d e6e7 14be 7d63 f53c
00000090: 923e bfbd e48d d73d 080b 5d3d a632 75bd
000000a0: 74b4 913c e1e6 d1bd bbdd 2fbd 56d8 9ebd
000000b0: b1f7 abbc e2cf e63c 1cbe 0c3d 6380 4abd
000000c0: 216d cdbd dadb 09be f23b febd 04e1 11bd
000000d0: 2ee2 0e3d ec64 043d c04d 9c3d f7e5 223c
000000e0: 9452 26be a0d0 a0bc 10cd 04bd 39bc 09be
000000f0: 8294 5a3d 69bf 56bd 4b08 363e 0310 733e
00000100: 29c2 913d e505 a13d d778 603d 6db8 ea3d
00000110: 3096 f13d f05a 61bc 9ca9 2d3d f7f5 e33c
00000120: 1d64 9e3d 25e1 b7bb ca35 843d 5fc9 003e
00000130: 248a 31bd a984 173d 8043 00bd c9ea 483e
00000140: e473 4e3d 9677 113d e107 3e3c d3f4 abbd
00000150: 4a3b 173d 66a6 fdbb 889f 5fbd c6f4 4b3d
00000160: 2925 f7bd c35c 28be 8869 8b3c b4e1 353e
00000170: 3e9a 9fbd 0b48 b23b 300b 063e 5c5a bd3d
00000180: 66c6 2b3d 97bd 823c 45c3 633e 8963 34bd
00000190: 4054 9b3a bc9e ffbc d7d5 b5bd bb5e c7bc
000001a0: 7e02 923e 7d03 17bc 9180 7bbe d584 0a3d
000001b0: a08b 253d 1dd2 843c e954 443c 58c2 103d
000001c0: ae48 263d 04bd 623d bec4 61be 28fb 2b3d
000001d0: 3d05 3f3e 7204 4dbd 0d11 a3bd e3e1 2eba
000001e0: 21b4 5e3c c51c 313d 1d6f 843d 57dc d7bd
000001f0: f32d 013d c4f7 3e3d ef1e a13b 7b83 583d
00000200: 90a1 b43d 8453 d0bc da13 173e 2272 343e
00000210: 2086 853c e8e3 0cbd 270a 853d 9890 a23c
00000220: c2de 883c 4ee8 f2bd d3ba e13c 781e f13b
00000230: 487d b6bc 0e15 43bd 66ff 1f3e ac1b 24bd
00000240: 026f 173c b1a1 913d a693 103e 08b4 1dbd
00000250: 6875 15bc 7c23 4cbd 7c62 13bd 2d72 c73d
00000260: fb93 eabb d8ad 783c d52e a53d d746 63bd
00000270: 09ac 35be 67bc 3dbc a0f4 ac3c 1c6d 89bc
00000280: 4029 d9ba f738 2f3d da32 1dbd edbf b2bc
00000290: 73f9 44bc 9451 6cbc 6724 4abe c6e4 a93d
000002a0: c0a8 b3bb 65f6 58be 29f7 713e 54e4 cbbc
000002b0: 3ddb 82bd 59c3 87bd 3337 51bd 2ec9 63be
000002c0: 94f4 3ebd ba8e 14bb e28c d33c dff9 40bd
000002d0: 5efb 813d 1796 b53c af60 693e 48a7 f03d
000002e0: 1045 dcbc a61e 4a3e 0131 51bd ba61 18be
000002f0: 7341 88bd a47b 623d 9e35 23bd 5e55 f63d
00000300: 4f20 55be fbcc e6bd 8422 7d3d a2ca 41bd
00000310: 2a20 fcbc 2995 26bd f714 9f3d 118f 273d
00000320: 1aae b3bc 0888 183c 0072 623e 92db 243c
00000330: be00 283c 57a7 483d ac7b 86bc d7d1 22bd
00000340: f322 3d3c e374 6ebd 9c33 c43d 28a0 d9bc
00000350: c591 893b 12be 193d c2b1 c33d d2e4 963d
00000360: c692 4b3e 2b2a 81b9 cb86 933d d78f 723d
00000370: 0e00 303d 4af7 27bd 0603 5dbe 20be 103d
00000380: 52bb 3ebe 82c2 0fbd bc33 1c3d a235 8c3d
00000390: fb9b 54ba 6cd1 fabc 8444 94be 31b8 3dbd
000003a0: 325a 21bd 7eac d7bd 0d2a c1bd 6479 143e
000003b0: 58d6 283d 704a 9bbc 4adb 71bd 2cc1 c4bc
000003c0: 4c5e cdbc f688 673d 655c d43d 69d5 2bbd
000003d0: f80d 6d3d 4075 813d 4c54 1dbe 8788 2bbd
000003e0: 6251 383c 6862 75bc 1a1c ad3c 3e54 30be
000003f0: 0015 2f3d 9e64 62be e11e 673e 27ee 1bbd

lin2.bias f4 [256]
-0.028663797 -0.017553745 -0.023696672 -0.040347047 0.0045002177 0.028090073 0.02710773 -0.052424952
-0.030756015 0.0067752074 0.037674982 -0.0015751708 0.01551528 0.001480253 -0.04488692 0.03461636
0.04359989 -0.0028576888 0.032724615 0.07775228 -0.034486502 0.054897517 0.05562352 0.040247686
0.063986324 -0.049592152 0.03333012 0.009281711 0.075979635 -0.040633507 -0.005869192 0.041730385
0.030141167 0.009058504 0.01564909 -0.028990762 0.042235184 0.040433135 0.068414815 -0.025350885
-0.043971833 0.073265314 -0.009917046 0.02432861 0.042386267 -0.02244 0.038696334 0.02924266
-0.032004196 0.078891255 0.01617472 0.009788884 -0.042877182 0.07086035 -0.03289869 -0.0011814424
-0.04508127 0.032808766 -0.04082723 -0.055444136 0.0601361 -0.010729896 -0.0129485205 0.0028112766
0.00451006 0.009165764 0.05558683 0.041514456 0.0025243529 -0.03712467 -0.01825223 0.044979367
-0.037132934 0.0223674 0.0153027205 -0.029282652 0.054864477 0.021850595 0.013671553 -0.030855298
-0.016012955 0.00046899056 -0.025927125 0.0005448041 0.021020137 -0.0043175044 0.008124992 0.054611955
-0.019883066 0.049192663 -0.011636063 0.015122429 -0.026212895 -0.038060933 0.06897176 -0.0064303773
0.046799053 0.01976442 0.049200457 0.046905797 -0.032597955 -0.020922838 0.07523758 -0.022547962
-0.057698227 0.058083292 0.05368796 0.060582403 0.040348716 -0.018964276 0.05116085 -0.00821336
0.025040127 -0.0600446 0.07201011 -0.02870211 -0.037581615 0.025822163 0.038870856 -0.050741248
0.088229686 -0.00084307016 0.029846877 0.0337677 -0.04537642 0.04125082 0.0665098 0.043365758
0.02525337 0.023690172 0.027348856 0.004213158 0.011553136 0.086393304 -0.010975515 -0.021188477
0.010584254 0.05179668 -0.00063663156 -0.02374013 -0.034240574 0.047251545 0.07275379 0.024331354
-0.034202285 -0.02961071 0.055972226 -0.0059084594 0.033800002 -0.03693358 -0.03500816 -0.023124928
-0.059982456 0.05690904 0.019916622 -0.06111123 0.053486165 0.013088722 0.05449612 0.022978522
0.022132419 0.018775146 -0.0070603564 -0.019444065 0.011996129 0.015843356 0.05679776 -0.02644807
0.040140565 0.03247045 0.031218627 -0.035390355 -0.022340536 0.047008216 0.04003781 0.025173537
-0.029022232 -0.041546576 0.02071584 0.049023386 -0.05946207 0.032914672 -0.042732816 -0.035655264
-0.034065295 -0.029788567 -0.025321446 -0.03748702 0.0026369083 0.006994248 0.05844986 0.031896584
-0.003220868 -0.017860642 0.056403838 0.03878439 0.013147585 0.022050196 -0.012467749 -0.00028906774
0.0030522353 -0.03589473 0.03605948 0.044667788 -0.03075201 -0.019951053 0.01310043 0.031385638
0.025726194 -0.046042487 -0.000822492 0.009886826 0.030957602 0.028138569 0.0011131163 -0.027057473
-0.043342654 -0.047528233 0.03522702 0.040271353 -0.014734082 0.055626042 -0.019796474 0.044797745
0.010675474 0.060061675 0.040412754 -0.020998508 0.011110588 -0.0493109 0.027793007 -0.016665043
-0.049451932 -0.025741398 -0.056096986 -0.004368635 -0.0068415306 -0.06073016 0.0186806 -0.04571651
0.0131505355 -0.042281643 0.0040942454 -0.0048499634 -0.011609821 0.02537824 0.045055654 0.03708286
0.03911627 0.052586123 -0.048120834 0.0110901 0.04171943 0.0012322876 -0.018330209 -0.04062906
00000000: 57d0 eabc dfcc 8fbc 861f c2bc f242 25bd
00000010: 9076 933b 271d e63c 0811 de3c 8cbb 56bd
00000020: 0af4 fbbc 8f02 de3b 1551 1a3d f675 ceba
00000030: cd33 7e3c 0c05 c23a 59db 37bd e2c9 0d3d
00000040: cc95 323d 1048 3bbb 3f0a 063d 963c 9f3d
00000050: b841 0dbd 38dc 603d 7dd5 633d c2da 243d
00000060: 430b 833d 2421 4bbd 2a85 083d 5112 183c
00000070: 369b 9b3d 526f 26bd 5a52 c0bb 7bed 2a3d
00000080: 9cea f63c 1f6a 143c 8532 803c 097e edbc
00000090: cdfe 2c3d 379d 253d 111d 8c3d a9ac cfbc
000000a0: cf1b 34bd 200c 963d 1b7b 22bc cb4c c73c
000000b0: 399d 2d3d 17d4 b7bc 0c80 1e3d 4e8e ef3c
000000c0: d516 03bd bd91 a13d d980 843c 8e61 203c
000000d0: fc9f 2fbd 3b1f 913d c7c0 06bd a1da 9aba
000000e0: 23a7 38bd 7c62 063d 743a 27bd 6419 63bd
000000f0: 4551 763d 72cc 2fbc 0826 54bc 653d 383b
00000100: 20c9 933b 002c 163c 04af 633d 100b 2a3d
00000110: 9d6f 253b 0a10 18bd b385 95bc 493c 383d
00000120: b418 18bd d63b b73c 43b8 7a3c 2ce2 efbc
00000130: 93b9 603d 0500 b33c a6fe 5f3c 40c4 fcbc
00000140: 9a2d 83bc d9e2 f539 1f65 d4bc 2fd1 0e3a
00000150: 6c32 ac3c da79 8dbb b01e 053c c9b0 5f3d
00000160: d0e1 a2bc 3f7e 493d 30a5 3ebc 10c4 773c
00000170: 6dbc d6bc c8e5 1bbd 1141 8d3d eab5 d2bb
00000180: 5db0 3f3d fee8 a13c 6b86 493d 4b20 403d
00000190: 6f85 05bd 5f66 abbc 2916 9a3d 81b6 b8bc
000001a0: fa54 6cbd bfe8 6d3d e8e7 5b3d 4125 783d
000001b0: b244 253d f85a 9bbc 0a8e 513d 5491 06bc
000001c0: f420 cd3c 54f1 75bd 097a 933d b020 ebbc
000001d0: 2eef 19bd 0089 d33c 0c37 1f3d 0ed6 4fbd
000001e0: c4b1 b43d 7b01 5dba 7081 f43c 0050 0a3d
000001f0: a0dc 39bd 9ff6 283d 4a36 883d 4ba0 313d
00000200: 28e0 ce3c e411 c23c b50a e03c 880e 8a3b
00000210: 5d49 3d3c f9ee b03d a5d2 33bc 7593 adbc
00000220: 9469 2d3c c128 543d 9fe3 26ba a97a c2bc
00000230: d83f 0cbd d68a 413d f0ff 943d 8c52 c73c
00000240: b217 0cbd 2992 f2bc 2243 653d c09b c1bb
00000250: df71 0a3d aa47 17bd b764 0fbd 7d70 bdbc
00000260: 2ab0 75bd 7419 693d 2f28 a33c c54f 7abd
00000270: 4f14 5b3d 1472 563c 5337 5f3d 743d bc3c
00000280: 0c4f b53c 56ce 993c 905a e7bb 2949 9fbc
00000290: 698b 443c edc9 813c c5a4 683d 9fa9 d8bc
000002a0: 6f6a 243d bcff 043d 35be ff3c 7af5 10bd
000002b0: 8003 b7bc b08b 403d b0fe 233d bc38 ce3c
000002c0: 08c0 edbc be2c 2abd 44b4 a93c bfcc 483d
000002d0: 808e 73bd 89d1 063d 9b08 2fbd 410b 12bd
000002e0: 0d88 0bbd 2707 f4bc ec6e cfbc fd8b 19bd
000002f0: fbcf 2c3b 0130 e53b 1f69 6f3d fea5 023d
00000300: 3315 53bb 7b50 92bc b607 673d 61dc 1e3d
00000310: f868 573c 9da2 b43c 8845 4cbc 048e 97b9
00000320: 0308 483b 5a06 13bd 1bb3 133d 92f5 363d
00000330: a4eb fbbc 6470 a3bc 30a3 563c 3a8e 003d
00000340: bdbf d23c 0c97 3cbd 819c 57ba 5bfc 213c
00000350: cc9a fd3c db82 e63c fce5 913a a2a7 ddbc
00000360: 1188 31bd f7ac 42bd 354a 103d 93f3 243d
00000370: 3867 71bc 22d8 633d 372c a2bc d77d 373d
00000380: 2fe8 2e3c 3b03 763d d887 253d 1005 acbc
00000390: 2f09 363c 3afa 49bd 29ae e33c 2185 88bc
000003a0: 1c8e 4abd a0df d2bc f4c5 65bd c426 8fbb
000003b0: eb2e e0bb 30c0 78bd 0f08 993c 3c41 3bbd
000003c0: 5875 573c 842f 2dbd 0529 863b 71ec 9ebb
000003d0: 1e37 3ebc 07e6 cf3c 478c 383d 32e4 173d
000003e0: 6238 203d 8c64 573d 5a1a 45bd 40b3 353c
000003f0: fee1 2a3d b684 a13a 3c29 96bc a86a 26bd

lin3.weight f4 [2, 256]
0.08391037 0.034027588 0.051229667 0.07515088 0.044348225 -0.04074174 -0.09566357 0.022953898
-0.078054376 0.050661966 0.07691333 -0.10369427 0.09750341 -0.037027337 0.006002399 0.08456722
-0.090662874 -0.17396142 -0.06604208 -0.08550684 -0.043163612 0.047454916 -0.045358498 -0.05034013
-0.027920974 -0.050539695 0.052006416 0.06445435 0.07205095 -0.018799217 -0.04758431 -0.011253106
0.13928093 -0.09684383 0.103553414 0.26150158 0.03832045 -0.026161516 0.10953429 0.108927384
0.021653855 0.08524381 -0.049220636 -0.34598878 0.078550644 0.07312446 -0.06130119 -0.08294306
-0.011766699 0.018086022 -0.07179371 0.019718548 -0.004115723 0.043333743 -0.012352876 0.009064586
0.10282547 0.094312 -0.023090469 0.01688169 0.09984818 -0.0844684 -0.030148387 -0.092298724
-0.032579914 -0.0009601936 0.07931835 0.120289885 0.117095314 0.035983898 0.03912052 -0.0489732
0.10292587 -0.009360101 -0.0481214 0.011915967 0.06391558 -0.08981684 -0.044608947 -0.05947818
-0.09109416 0.08030941 0.10780036 -0.029297592 -0.043910302 -0.00063705 -0.047968164 0.1493222
0.008811613 0.10009605 -0.039303925 -0.11489431 0.10465143 0.011957499 0.021315258 -0.09417785
-0.067191295 -0.01388994 0.09868624 0.048138175 -0.0726688 -0.05651712 0.109778784 0.039382376
-0.005795859 0.081220545 0.021716826 0.08233065 -0.019816892 0.04289341 -0.05111646 -0.040379986
-0.0058213472 -0.012287334 -0.08294089 0.083371714 -0.0125297215 -0.003413856 -0.0747051 -0.017411202
0.053379126 -0.031460002 0.05291496 0.058542915 -0.07216746 -0.08506511 0.09064742 -0.13985315
0.12094459 -0.02329833 -0.0434648 -0.016244782 0.10467933 0.08016607 0.087786965 -0.040060088
-0.07088567 -0.014192198 0.09357295 -0.22201099 0.05270982 -0.044902608 -0.07129364 0.026359105
-0.037493143 0.0908188 0.07467961 0.0009121384 0.08668791 -0.0036656186 -0.092429705 0.055323534
-0.04005731 0.09529693 -0.41857806 0.082881145 -0.03999434 0.0141992355 0.010997656 -0.04828006
-0.05395496 0.06344562 -0.0448135 0.18629363 -0.084205784 -0.24103044 -0.021349903 -0.09490381
0.11934852 0.09582191 0.02904309 0.030803002 0.10982485 -0.041722544 0.037503723 0.016839765
0.0038171303 -0.014089912 -0.0076947063 -0.07759642 -0.014906466 0.08706703 0.08411238 0.06687759
0.22923416 -0.10313823 -0.08172444 -0.0019544482 -0.0015798088 0.071133174 0.048949696 -0.106912464
-0.085383415 0.04969935 0.08340847 -0.03927096 -0.0029432625 -0.103788584 -0.05109018 -0.038940594
-0.08568075 0.055207253 -0.23947656 0.02457924 -0.05927418 0.050179042 0.054034926 0.09432216
-0.084308475 -0.091188714 -0.09757155 0.088591024 0.060006272 0.09858645 0.023861414 0.051319253
0.10359739 0.03871936 0.0749388 -0.07734907 -0.060837597 0.10837854 -0.018608442 0.11093049
-0.029065097 -0.05286583 -0.08803905 0.026252795 0.10034387 0.05712477 -0.028296482 -0.021969646
0.042065166 0.02918405 0.03638701 -0.07624568 0.061017737 -0.015848607 -0.049463682 -0.02214925
0.014462069 0.0009937923 0.011800339 -0.21457826 -0.094978414 0.03614477 0.10879408 -0.09082316
-0.10030381 -0.058825403 -0.022098424 0.0022322175 0.07126191 -0.087361045 -0.025970332 -0.037473843
00000000: 33d9 ab3d 8360 0b3d 33d6 513d b4e8 993d
00000010: 7ca6 353d d0e0 26bd 43eb c3bd d009 bc3c
00000020: f9da 9fbd ec82 4f3d bc84 9d3d a95d d4bd
00000030: deaf c73d faa9 17bd c6af c43b 9431 ad3d
00000040: 75ad b9bd f122 32be 1241 87bd 361e afbd
00000050: 54cc 30bd 1660 423d d5c9 39bd 7431 4ebd
00000060: 87ba e4bc b602 4fbd ae04 553d a400 843d
00000070: 738f 933d d100 9abc c4e7 42bd f35e 38bc
00000080: a99f 0e3e 0f56 c6bd d013 d43d 89e3 853e
00000090: e7f5 1c3d ad50 d6bc 8453 e03d 5215 df3d
000000a0: 6d63 b13c 4f94 ae3d 949b 49bd 7125 b1be
000000b0: 29df a03d 47c2 953d f516 7bbd 0dde a9bd
000000c0: 1dc9 40bc 2329 943c 9508 93bd cb88 a13c
000000d0: 30dd 86bb b97e 313d b863 4abc a183 143c
000000e0: 2996 d23d a626 c13d 3928 bdbc 784b 8a3c
000000f0: 347d cc3d c5fd acbd c0f9 f6bc 1d07 bdbd
00000100: 8472 05bd 80b5 7bba a971 a23d 8b5a f63d
00000110: abcf ef3d da63 133d d73c 203d 1f98 48bd
00000120: ccca d23d 1c5b 19bc f21a 45bd 303b 433c
00000130: 2ce6 823d e4f1 b7bd dfb7 36bd 649f 73bd
00000140: 938f babd 4379 a43d 6fc6 dc3d 8101 f0bc
00000150: 4adb 33bd b4ff 26ba 447a 44bd ebe7 183e
00000160: 955e 103c 28ff cc3d 27fd 20bd b54d ebbd
00000170: 7d53 d63d 63e9 433c 569d ae3c 51e0 c0bd
00000180: 979b 89bd a292 63bc 031c ca3d 892c 453d
00000190: 61d3 94bd 7f7e 67bd b3d3 e03d 6a4f 213d
000001a0: 30eb bdbb f556 a63d 7ce7 b13c f99c a83d
000001b0: 0957 a2bc 00b1 2f3d 7e5f 51bd 7c65 25bd
000001c0: 00c1 bebb d050 49bc eadc a9bd cabe aa3d
000001d0: 7649 4dbc 00bb 5fbb fdfe 98bd f0a1 8ebc
000001e0: 12a4 5a3d 34dc 00bd 5bbd 583d b2ca 6f3d
000001f0: 89cc 93bd 9e36 aebd 5ba5 b93d aa35 0fbe
00000200: ccb1 f73d 24dc bebc 2508 32bd c713 85bc
00000210: 1e62 d63d 1c2e a43d a7c9 b33d 0c16 24bd
00000220: 822c 91bd 6586 68bc 2da3 bf3d d956 63be
00000230: 41e6 573d cceb 37bd 6602 92bd 0def d73c
00000240: 6992 19bd 35ff b93d a0f1 983d 921c 6f3a
00000250: 6e89 b13d e03a 70bb c94b bdbd ee9a 623d
00000260: 2213 24bd 092b c33d dd4f d6be 97bd a93d
00000270: 1bd1 23bd e9a3 683c 832f 343c 50c1 45bd
00000280: e0ff 5cbd c7ef 813d 5c8e 37bd c2c3 3e3e
00000290: 1574 acbd afd0 76be fee5 aebc ee5c c2bd
000002a0: ff6c f43d 473e c43d c6eb ed3c 9456 fc3c
000002b0: daeb e03d 42e5 2abd 819d 193d 8cf3 893c
000002c0: d228 7a3b 60d9 66bc e023 fcbb dfea 9ebd
000002d0: 403a 74bc 3350 b23d 1d43 ac3d 1ef7 883d
000002e0: 5cbc 6a3e 233a d3bd 255f a7bd 3316 00bb
000002f0: 9611 cfba 45ae 913d 7a7f 483d ecf4 dabd
00000300: 80dd aebd 8c91 4b3d 0fd2 aa3d 96da 20bd
00000310: c0e3 40bb 1c8f d4bd f043 51bd 2c80 1fbd
00000320: 6479 afbd 0021 623d 5839 75be 675a c93c
00000330: 7cc9 72bd 8a88 4d3d ba53 5d3d fa2b c13d
00000340: eca9 acbd 26c1 babd 98d3 c7bd 366f b53d
00000350: 23c9 753d b1e7 c93d 0379 c33c 2334 523d
00000360: de2a d43d 3198 1e3d 8379 993d 3069 9ebd
00000370: d830 79bd 91f5 dd3d bb70 98bc 862f e33d
00000380: ed19 eebc d789 58bd d14d b4bd 1a10 d73c
00000390: 1681 cd3d aafb 693d 06ce e7bc b0f9 b3bc
000003a0: 864c 2c3d 6413 ef3c 8c0a 153d b226 9cbd
000003b0: bced 793d f0d4 81bc 6e9a 4abd 5872 b5bc
000003c0: 50f2 6c3c 2342 823a 3656 413c 67ba 5bbe
000003d0: 0b84 c2bd 8a0c 143d 6ecf de3d 7e01 babd
000003e0: 156c cdbd e8f2 70bd c107 b5bc 654a 123b
000003f0: c4f1 913d 59ea b2bd bcbf d4bc 2c7e 19bd

lin3.bias f4 [2]
0.019771792 -0.013344213
00000000: 74f8 a13c b0a1 5abc
